…
    "Y_train = Yn[:int(Yn.shape[0]*trainPercent),:]\n",
    "Y_test = Yn[int(Yn.shape[0]*trainPercent):,:]"
   ]
  },
  {
   "cell_type": "code",
   "execution_count": 18,
   "metadata": {
    "lines_to_next_cell": 0,
    "scrolled": true
   },
   "outputs": [
    {
     "name": "stdout",
     "output_type": "stream",
     "text": [
      "Model: \"sequential_1\"\n",
      "_________________________________________________________________\n",
      "Layer (type)                 Output Shape              Param #   \n",
      "=================================================================\n",
      "conv2d_1 (Conv2D)            (None, 55, 55, 96)        34944     \n",
      "_________________________________________________________________\n",
      "activation_1 (Activation)    (None, 55, 55, 96)        0         \n",
      "_________________________________________________________________\n",
      "max_pooling2d_1 (MaxPooling2 (None, 27, 27, 96)        0         \n",
      "_________________________________________________________________\n",
      "conv2d_2 (Conv2D)            (None, 27, 27, 256)       614656    \n",
      "_________________________________________________________________\n",
      "activation_2 (Activation)    (None, 27, 27, 256)       0         \n",
      "_________________________________________________________________\n",
      "max_pooling2d_2 (MaxPooling2 (None, 13, 13, 256)       0         \n",
      "_________________________________________________________________\n",
      "conv2d_3 (Conv2D)            (None, 13, 13, 384)       885120    \n",
      "_________________________________________________________________\n",
      "activation_3 (Activation)    (None, 13, 13, 384)       0         \n",
      "_________________________________________________________________\n",
      "conv2d_4 (Conv2D)            (None, 13, 13, 384)       1327488   \n",
      "_________________________________________________________________\n",
      "activation_4 (Activation)    (None, 13, 13, 384)       0         \n",
      "_________________________________________________________________\n",
      "conv2d_5 (Conv2D)            (None, 13, 13, 256)       884992    \n",
      "_________________________________________________________________\n",
      "activation_5 (Activation)    (None, 13, 13, 256)       0         \n",
      "_________________________________________________________________\n",
      "max_pooling2d_3 (MaxPooling2 (None, 6, 6, 256)         0         \n",
      "_________________________________________________________________\n",
      "dropout_1 (Dropout)          (None, 6, 6, 256)         0         \n",
      "_________________________________________________________________\n",
      "flatten_1 (Flatten)          (None, 9216)              0         \n",
      "_________________________________________________________________\n",
      "dense_1 (Dense)              (None, 4096)              37752832  \n",
      "_________________________________________________________________\n",
      "activation_6 (Activation)    (None, 4096)              0         \n",
      "_________________________________________________________________\n",
      "dropout_2 (Dropout)          (None, 4096)              0         \n",
      "_________________________________________________________________\n",
      "dense_2 (Dense)              (None, 4096)              16781312  \n",
      "_________________________________________________________________\n",
      "activation_7 (Activation)    (None, 4096)              0         \n",
      "_________________________________________________________________\n",
      "dropout_3 (Dropout)          (None, 4096)              0         \n",
      "_________________________________________________________________\n",
      "dense_3 (Dense)              (None, 1000)              4097000   \n",
      "_________________________________________________________________\n",
      "activation_8 (Activation)    (None, 1000)              0         \n",
      "_________________________________________________________________\n",
      "dense_4 (Dense)              (None, 10)                10010     \n",
      "_________________________________________________________________\n",
      "activation_9 (Activation)    (None, 10)                0         \n",
      "=================================================================\n",
      "Total params: 62,388,354\n",
      "Trainable params: 62,388,354\n",
      "Non-trainable params: 0\n",
      "_________________________________________________________________\n",
      "Epoch 1/1000\n",
      " - 38s - loss: 0.0900 - categorical_accuracy: 0.1010\n",
      "Epoch 2/1000\n",
      " - 21s - loss: 0.0899 - categorical_accuracy: 0.1110\n",
…
